…
1875/1875 [==============================] - 36s 19ms/step - loss: 0.2762 - accuracy: 0.9012 - val_loss: 0.3306 - val_accuracy: 0.8824
Epoch 9/10




















1875/1875 [==============================] - 44s 23ms/step - loss: 0.2702 - accuracy: 0.9036 - val_loss: 0.2960 - val_accuracy: 0.8953
Epoch 10/10






















1875/1875 [==============================] - 44s 23ms/step - loss: 0.2649 - accuracy: 0.9052 - val_loss: 0.2922 - val_accuracy: 0.8978
Model: "sequential_31"
_________________________________________________________________
 Layer (type)                Output Shape              Param #
=================================================================
 conv2d_32 (Conv2D)          (None, 26, 26, 10)        100
 conv2d_33 (Conv2D)          (None, 24, 24, 10)        910
 max_pooling2d_16 (MaxPoolin  (None, 12, 12, 10)       0
 g2D)
 conv2d_34 (Conv2D)          (None, 10, 10, 10)        910
 conv2d_35 (Conv2D)          (None, 8, 8, 10)          910
 max_pooling2d_17 (MaxPoolin  (None, 4, 4, 10)         0
 g2D)
 flatten_28 (Flatten)        (None, 160)               0
 dense_79 (Dense)            (None, 10)                1610
=================================================================
Total params: 4,440
Trainable params: 4,440
Non-trainable params: 0
_________________________________________________________________
Model: "sequential_21"
_________________________________________________________________
 Layer (type)                Output Shape              Param #
=================================================================
 flatten_18 (Flatten)        (None, 784)               0
 dense_65 (Dense)            (None, 4)                 3140
 dense_66 (Dense)            (None, 4)                 20
 dense_67 (Dense)            (None, 10)                50
=================================================================
Total params: 3,210
Trainable params: 3,210
Non-trainable params: 0
_________________________________________________________________

313/313 [==============================] - 1s 3ms/step - loss: 0.2922 - accuracy: 0.8978

313/313 [==============================] - 0s 857us/step - loss: 0.5952 - accuracy: 0.7926
WARNING:tensorflo
…
